models/monGPT.pt (torch, 516403 bytes, 44 tensors)

transformer.wte.weight f4 [417, 48]
00000000: f9a7 263a 36af 9d3c 99ba 68ba bb54 173c
00000010: 3ca6 2b3c 2606 4d3d 1df4 b1bb 0f93 263d
00000020: 34a4 4c39 67f1 ee3d 5108 d53b 45d3 ae3c
00000030: 4960 50bd c17d 87bc 7be7 21bc 9f94 d83c
00000040: 2eb8 c53c 169f 54bc 3867 723c 952b 73bc
00000050: c4f7 57bb 6fe6 eebb 8a44 4fbd 0085 e7bc
00000060: 739d f0bb e9b5 09bd 56a5 d83c dea4 de3c
00000070: 2bad c33d 8af0 5f3d 9812 8fbd e729 98bc
00000080: 7056 87bd 7795 9c3d fcb7 ddbc a52e 17bc
00000090: dfba 473d 96a7 9cbc d6ab 9abc eefe d93a
000000a0: 83da bb3b 8bd5 00bd 321a 29bd 8b63 27bd
000000b0: 8ddc af3d abd8 fabc db0f 05bc fd56 74bd
000000c0: 1f1f b3bc 5533 a23b 605a 3f3c d2d9 c3bb
000000d0: 7341 a53b 05ff 50bd 656a 2e3c 8451 86bc
000000e0: 8d32 ab3c 40e9 1fbc 16f0 863b a0c6 063c
000000f0: 1213 083d b7fa 6c3d 9182 7bbd f299 47bc
00000100: a62e 56bc 899f e9bc c565 4ebc fa70 4f3d
00000110: 87fa 803b f446 debc f77d f5bb 0af3 8d3c
00000120: 4c67 083b a0af 3a3d 61a2 193d a7cc 9dbc
00000130: 11e4 aebb 14b5 15bd 96c3 343b 3f48 083b
00000140: e44c bd3c 4c46 90bc 0b77 1c3d 552f 92bc
00000150: 9bac 54bc 6d40 203d bae6 d73c dbe0 dabc
00000160: 2a42 2e3c b0e9 e33b f334 213d db9e 193c
00000170: b3fd 0fbd b522 e739 a3f2 513c eaf1 883d
00000180: c50b 8b3b dbfe 00bd 3f60 0abd a6be 14bd
00000190: cd64 523c a66d 52bc d035 e33c 1a2e 903b
000001a0: 3882 3e3d b677 72bc 3636 3ebb 6345 4ebc
000001b0: 2b50 5abb e715 b3bb 21e3 b73c 33df 863c
000001c0: d474 85bc 384d 2b3b b519 063d cf1e 96bc
000001d0: b6db 65bc 418b 8dbc e02d 11bc 1aee 45ba
000001e0: e518 2bbd 0b75 0a3c 6c7a 923c f27a e6bb
000001f0: cf93 8dbd 1eed aebb faca 64bb 79af 86b9
00000200: c9aa 723c 585b 9b3b 2d62 903b 8784 f73c
00000210: 56ee b5bc 14a2 763b ef5e b53c c264 633c
00000220: 7e95 6f3c 443c d43c c5e8 1c3c c8da 793c
00000230: 5f28 65bd 80d9 a7bc 30d1 873c 935f ea3c
00000240: 68e0 1bbd e55a 503c 8987 9c3c f1b6 29bc
00000250: f618 053d 836e 19bd 1b28 20bd b608 05bd
00000260: 4c68 833c 687c 13bd 9536 d63c 4a97 923a
00000270: bc61 b0bb f7c8 723d fb93 1d3d 685e 3c3d
00000280: a6cc 6a3c 46b4 0ebd 330e aabc 4682 b2ba
00000290: 2af2 e33c 5b73 213b 6260 f1bc 1da2 a4bb
000002a0: 564c f3bc ed6e e83b 32b8 b13c 63d9 03bd
000002b0: fa85 5fbd 1df0 76bc 995c ab3c 39ec 373c
000002c0: a149 bebc 99cd 1d3c 5ceb b33c d7e9 97bc
000002d0: ea22 453d a3ee 03bd 10ff 2fbc 30e8 c4bb
000002e0: f0ca 1f3d 6dad acbb 8649 db3c c6bc cabc
000002f0: 336d ffbc a482 783c b610 f23b 7a43 743c
00000300: 12cd 89bb 5da9 0b3d 7556 0c3c 6607 77bd
00000310: cda3 1fbd 1302 05bd 247d 8abc c93c 96bd
00000320: a447 60bc 3e1f a1bc 9b1f 2c3d 9fe1 1c3d
00000330: 8086 c73c 53b3 c4bc 5171 053d 85e0 eab9
00000340: aeec 7a3d 9d87 c5bc d64e ea3c 7010 34bb
00000350: 394b 40bc 535e 46bd d53f 61ba c39a 31bd
00000360: 883c 1f3d c470 70b8 ce6a 70bc 3410 09bd
00000370: 5ba5 10bd 2c82 a7bc ce50 263c 75fc 3dbc
00000380: 1cd7 743c b637 053d 1294 cb3c 37e6 323d
00000390: 73a9 4abb 333f 12bd 9354 19bd 354c 463c
000003a0: c616 ecbb 5d11 a4bc a83d 603c 557b 11bc
000003b0: a76f b5bb 1ade 80bc 092a f0bc a90d 643d
000003c0: c56c a43d 9276 493b 82d0 efba d905 84bc
000003d0: efca 75bd 8dad 853c d8ea 70bc f964 aaba
000003e0: 6517 91bd be9e 62bd 1f9e 12bc 3fa4 c6bc
000003f0: 3faf 22bd ebfe 35bd 34f0 e9bc 2326 b8bb
0.00063574273 0.019248586 -0.0008877903 0.00923651 0.010476645 0.05005469 -0.005430712 0.04066759
0.00019516126 0.116671376 0.0065012355 0.021340976 -0.050873075 -0.016539456 -0.009881849 0.026438056
0.024135675 -0.012977382 0.014795117 -0.014841934 -0.0032954076 -0.0072906534 -0.050602473 -0.028261662
-0.007342988 -0.03362075 0.026446026 0.027178224 0.095545135 0.054672755 -0.06985968 -0.018574668
-0.066082835 0.07645696 -0.02706527 -0.0092274295 0.0487622 -0.01912288 -0.018880766 0.0016631761
0.0057328357 -0.03145365 -0.041284747 -0.040866416 0.085869886 -0.030620893 -0.008121456 -0.05965327
-0.021865426 0.004949967 0.011679262 -0.005976894 0.0050432025 -0.051024456 0.010645484 -0.016396292
0.020898128 -0.009760201 0.004117976 0.008226067 0.033221312 0.057856288 -0.061403815 -0.0121826995
-0.013072645 -0.028518455 -0.012597506 0.050644852 0.003936115 -0.027133442 -0.007491823 0.017327804
0.0020813523 0.045577645 0.037508372 -0.019262625 -0.005337246 -0.036549643 0.0027582399 0.0020795015
0.023107953 -0.017611645 0.038199466 -0.017844835 -0.0129806055 0.03912394 0.026355136 -0.026718548
0.010635892 0.006955348 0.039357137 0.009376253 -0.035154056 0.00044085612 0.012814197 0.066867664
0.0042433464 -0.03149305 -0.033783194 -0.03631463 0.012841416 -0.012843525 0.02773562 0.004400027
0.046510905 -0.014799049 -0.0029024011 -0.012589785 -0.0033311944 -0.0054652574 0.02244717 0.016463852
-0.01629106 0.0026138555 0.03273936 -0.018325238 -0.014029434 -0.017278315 -0.008861035 -0.00075504335
-0.04177179 0.008450757 0.01788064 -0.007033699 -0.06912958 -0.005338325 -0.0034911023 -0.0002568921
0.014811226 0.0047411136 0.0044062347 0.030214561 -0.022208374 0.0037633227 0.022139994 0.013879003
0.014623044 0.025907643 0.009576981 0.015249915 -0.055946704 -0.020489454 0.01657924 0.028610026
-0.038055807 0.012716983 0.019107597 -0.010358558 0.032494508 -0.037458908 -0.039100748 -0.03247901
0.016040944 -0.036007315 0.026149074 0.0011184004 -0.0053827446 0.059273686 0.038471203 0.04598847
0.014331019 -0.03483989 -0.020758724 -0.0013619147 0.027825434 0.0024635408 -0.029464904 -0.005024208
-0.029699486 0.0070933015 0.021694276 -0.032189738 -0.05457113 -0.015071896 0.020918177 0.011225753
-0.023228468 0.009631538 0.021962814 -0.01854412 0.048129 -0.032210004 -0.010741964 -0.006009124
0.039011896 -0.0052696974 0.026768457 -0.024748217 -0.03118 0.015167866 0.007387246 0.014908666
-0.0042053545 0.034097064 0.008565535 -0.06030979 -0.038974572 -0.03247268 -0.016905375 -0.073358126
-0.013688955 -0.019668218 0.04202233 0.038301107 0.024356127 -0.02401129 0.03257877 -0.00044799238
0.06126087 -0.024112517 0.028602045 -0.0027475618 -0.0117366845 -0.0484298 -0.00085925806 -0.043360483
0.038876086 -5.732548e-05 -0.014673902 -0.033462718 -0.035313945 -0.020447813 0.010151101 -0.011595835
0.014943864 0.032523833 0.024850879 0.04367658 -0.0030923754 -0.035704803 -0.037434172 0.01210313
-0.0072048632 -0.02002781 0.013686575 -0.008879502 -0.0055369916 -0.015730906 -0.029316919 0.05567709
0.08028559 0.003074084 -0.0018296393 -0.01611607 -0.060007986 0.016318107 -0.014704429 -0.0013000063
-0.0708454 -0.05532717 -0.008948832 -0.02424824 -0.03971791 -0.04443256 -0.02855692 -0.0056197806

transformer.wpe.weight f4 [11, 48]
00000000: 1c1b f23c e027 873c dbcb b03c 9c38 d03b
00000010: 1d83 31bc d442 7d3d b92d 41bc dc18 ba3c
00000020: f3f0 2c3c 5d77 3f3d 49a9 aebc e1e7 a03c
00000030: fe31 34bd 2ceb 863c 5d2d f8bb 5dc6 b3bc
00000040: a2f1 843c f7a9 da3c b01a bd3b d2bc e9bb
00000050: 5bf0 b1bb 5965 98bc 2143 133d 5090 453c
00000060: 27b3 a73b 46dd 0abd 3f96 453b b7d0 833c
00000070: 7d0e 983d 9db2 423c 144c 11bd 8fd8 123c
00000080: b194 02bd 2274 bc3d e61c 40bd 9d79 8abb
00000090: 2420 343c 9f1f 0fbc 6fa5 eabc cf07 d73b
000000a0: dbb6 89bc a67a acbc d1cc 45bd ce3e b83c
000000b0: aa2f 7fbc 243c 233c 88a8 1abc e0f6 2539
000000c0: bff8 dc39 6719 633c 04e1 773c 257c 8b3c
000000d0: 464d a13c bd96 2a3c f58e 503c aab4 6d3d
000000e0: 06d3 483c dcc9 113d 2647 c63b 090c b2bb
000000f0: 25b3 0cbd b306 f9bb fa28 8dbb abd0 913b
00000100: 236c 203d 0974 5b3c 17e8 17bb 58c1 153c
00000110: 47f7 75ba 8068 c5bc 7a37 18bd f9e5 48bd
00000120: 8f7a 2dbc ee39 0cbd 103c 0db9 a572 b93c
00000130: ed2b cd3c 81eb f3bb 8cf7 8cbc e287 2dbc
00000140: 9da5 28bd 40c9 6d3d d51c 9937 4ec8 e0bc
00000150: a829 3b3d 7422 6ebc 39d4 ffbc 53be 843c
00000160: d3e5 1f3b 8904 e9bb d4da 34bd 482a 18bd
00000170: ae62 803d efcb 2fbd ad49 42bb 68ee abbc
00000180: 0116 c5bb d2a2 ee3c 7a9b 813c 2bce 9a3a
00000190: 7a4b f83b 4fdd eb3c d380 edbb 52fd d53c
000001a0: 2641 9a3c 4e11 ce3d 5c74 c13c 51d2 a13b
000001b0: a268 56bd 42d6 163c 3d79 56bc 3f2b f03c
000001c0: 15d3 313d 9a32 a03b 4cfd 9a39 04b6 ffbc
000001d0: 0644 863b d6f3 62bc 43e8 61bb 3795 29bd
000001e0: 45c0 a0bc f177 33bc 40f3 413c f407 983c
000001f0: f54f 923d ce6c 84bc d2ba a3bd 4de5 163c
00000200: 0629 5ebb e22b 2b3d 1e56 b7bc 8526 fa3b
00000210: 23b5 a1bc 9e3f 3bbc 5d43 17bd 9e69 ea3c
00000220: 6025 9bbc 1e06 fcbc 66f4 26bd b224 87bc
00000230: 6276 083d 26fa 62bd 2e53 88bb d689 04bd
00000240: af38 913c b3de 833b 7cf4 c93c e7d2 f93b
00000250: 0287 263d 4c9a 153d 3043 82b9 ca49 0f3d
00000260: 017b 92bc fae3 8a3d e2fb 813c e3cf bf3a
00000270: a203 3dbd e908 473c 337a 483b cf39 213d
00000280: 4331 a93c d133 7dbb e147 a0ba 5fd1 08bc
00000290: c3ab 3c3d f939 35bd 9452 6fbb 54f7 4b3b
000002a0: 01a2 163c c918 fbbb 21a7 ca3a ae73 803c
000002b0: 9490 1f3d bd09 61bc 3c61 41bd 6f0e 0aba
000002c0: 3cb7 7abc f02d 943d 3e7f 52bc 550e 363c
000002d0: a560 893c 076f 89bc 3fae 4cbc 75f9 013d
000002e0: 1ba8 e2bc 87e3 fabb b12f f4bc d3c2 35bd
000002f0: 58f4 453d 51df 99bc dd37 5a3c 598b 18bd
00000300: ea71 5a3c 3a56 7d3c 7c54 81bb d4a4 d33c
00000310: ca9b dcbb 019c 873c bda9 5dbc 4679 353d
00000320: da50 58bc 3237 a93d 28e3 103d 9c52 6e3c
00000330: edd3 f9bc 26d0 61bc 43ad ff38 5d53 123a
00000340: c793 edba 4944 f5bc b4d9 903b 64c0 a0bc
00000350: 31b2 a3bb e68e e43c 9647 4a3a ac5b 6dbd
00000360: 0e91 88bc 6b12 a8bc ee55 aa3c 1495 743c
00000370: 9443 4d3d 7f52 90bc ba96 a4bd eed8 82bc
00000380: dfc5 70bd 1933 563d 1121 87bd 26a2 8ebc
00000390: 2343 a03c 35e6 9fbc a442 a8bc 1d5c cb3c
000003a0: e451 c6bc 61f2 09bd 5c9f f7bc 3c14 00bc
000003b0: e550 883d 20a2 5d3b 55be 56bc e965 82bd
000003c0: 5da4 78bc b46f 72bc 0adf abbc 9b3c a13c
000003d0: 09f7 5b3d d3d2 0a3d 564b a0bc 9486 b63c
000003e0: 3ba2 3fbd 1a60 6e3d b8eb 0f3d e38f 18bd
000003f0: 1c39 2c3d 45ba ee3c 0924 7439 f67c 153c
0.029553942 0.016498506 0.02158158 0.0063544046 -0.0108344825 0.06183131 -0.011790686 0.022716932
0.010555494 0.046744693 -0.021320956 0.019641818 -0.04399299 0.01646956 -0.007573767 -0.021945173
0.0162285 0.026692374 0.0057710037 -0.007133105 -0.005430264 -0.018603014 0.03595269 0.012058333
0.005117792 -0.03390243 0.0030149368 0.016090734 0.074246384 0.011883405 -0.035472944 0.008962764
-0.031880084 0.09201838 -0.04690256 -0.004225923 0.010993991 -0.008735566 -0.028643338 0.00656221
-0.016810825 -0.021054577 -0.04829103 0.022490885 -0.015575329 0.009963069 -0.009439595 0.00015827594
0.00042147 0.013861037 0.0151293315 0.01702697 0.019690167 0.010411915 0.012729396 0.058033623
0.012257343 0.0355929 0.006050962 -0.0054335636 -0.034350533 -0.0075996756 -0.0043078633 0.004449924
0.039165627 0.013394364 -0.0023179108 0.009140335 -0.00093828555 -0.024097681 -0.03716228 -0.049047444
-0.010588302 -0.034234934 -0.00013469183 0.022637675 0.02504536 -0.0074438457 -0.017207883 -0.010591479
-0.041173566 0.058053255 1.8252447e-05 -0.027439263 0.045694023 -0.014534581 -0.031229125 0.016204035
0.002439846 -0.0071111363 -0.044154003 -0.037149698 0.06268822 -0.042919096 -0.0029645965 -0.020987704
-0.006014586 0.029130373 0.015821207 0.001181071 0.007577357 0.028792052 -0.007248023 0.02612177
0.018829893 0.10061894 0.023615055 0.0049384017 -0.05234588 0.0092063565 -0.013090429 0.029317496
0.043414194 0.0048888447 0.0002956189 -0.031214722 0.0040974645 -0.01385208 -0.0034470714 -0.041402068
-0.019622931 -0.010953889 0.0118377805 0.01855848 0.07144157 -0.016165163 -0.079946175 0.009209943
-0.0033898964 0.041789897 -0.022379931 0.0076339864 -0.019739693 -0.011428742 -0.036929477 0.028614815
-0.01893872 -0.030764636 -0.04076042 -0.01649699 0.033316024 -0.05541434 -0.0041603064 -0.032358013
0.017727224 0.0040243506 0.024652712 0.0076240185 0.040656097 0.036524102 -0.0002484559 0.03498248
-0.017880918 0.06781764 0.015867177 0.0014634099 -0.046146043 0.01214812 0.0030590415 0.03936177
0.020653373 -0.0038635621 -0.0012228453 -0.008350699 0.046062242 -0.04424474 -0.0036517726 0.003112276
0.009193898 -0.0076628667 0.0015461185 0.01568016 0.03895624 -0.013735232 -0.04721187 -0.0005266433
-0.015302476 0.072353244 -0.01284772 0.011111815 0.016769717 -0.016776575 -0.012492715 0.03173204
-0.02766805 -0.007656518 -0.029807897 -0.044375252 0.048328727 -0.018783243 0.013318983 -0.037242267
0.013332823 0.015462453 -0.003946839 0.025835432 -0.0067324387 0.01655388 -0.013529238 0.04430511
-0.01320287 0.08262481 0.035372883 0.014546063 -0.030496562 -0.013782537 0.0001219162 0.000558188
-0.0018125706 -0.029939787 0.0044204835 -0.019622989 -0.0049956073 0.02790017 0.00077163556 -0.057948753
-0.01667073 -0.020516595 0.020792928 0.014928121 0.050113276 -0.017617462 -0.08036561 -0.01597258
-0.058782455 0.052294824 -0.06598104 -0.017411303 0.019563263 -0.019518951 -0.02053959 0.024824196
-0.02420897 -0.033678416 -0.030227356 -0.007817324 0.066560544 0.0033818558 -0.013106902 -0.06367094
-0.015175906 -0.01479714 -0.020980377 0.01968222 0.053702388 0.033892464 -0.019567173 0.022280969
-0.046785574 0.05819712 0.03513691 -0.037246596 0.04204665 0.029141555 0.00023283077 0.009124031

transformer.h.0.ln_1.weight f4 [48]
00000000: 8a51 873f 3133 863f cc32 8a3f c33c 8a3f
00000010: 2fbc 873f 5828 863f 358a 883f b458 883f
00000020: 668a 883f 92fd 883f bdda 873f 78b9 863f
00000030: 4ebd 873f 6406 8c3f 3b91 883f d6f6 873f
00000040: aba0 833f 1640 883f b14a 853f 2774 873f
00000050: b30c 893f 5fc2 873f da67 883f bca0 873f
00000060: 6eeb 853f f1c7 863f d5b3 873f ceed 873f
00000070: d976 873f 4df7 833f 37fe 863f 956e 8a3f
00000080: 6655 893f 0f65 853f bd65 873f c25b 873f
00000090: fa85 883f d10d 873f 01ba 873f 91c1 883f
000000a0: 3fd4 863f dd9e 863f 3c11 843f d313 873f
000000b0: 43ee 863f 4ca7 853f e0a6 8c3f c4ae 883f
1.0571759 1.0484372 1.0796752 1.0799793 1.0604304 1.0481062 1.0667177 1.065207
1.0667236 1.0702384 1.0613629 1.052535 1.0604646 1.093945 1.0669321 1.0622203
1.0283407 1.0644557 1.0413419 1.0582322 1.0707 1.0606192 1.0656693 1.0595927
1.0462472 1.0529767 1.0601755 1.0619447 1.0583144 1.0309845 1.054633 1.0814997
1.0729187 1.0421466 1.0577923 1.0574877 1.0665886 1.0551091 1.0603639 1.0684072
1.0533522 1.0517231 1.031776 1.0552925 1.0541462 1.044168 1.0988426 1.0678334

transformer.h.0.ln_1.bias f4 [48]
00000000: 0481 10bb a5b2 e23c 4024 0cbd 0fba a1bc
00000010: eff9 21ba b241 dbbc 9f44 39bb 59e2 8abd
00000020: ec5b e6bc 06e5 dcbc 9ebd d43c bb16 203c
00000030: 7cb1 9dbb 7593 0a3b e259 17bc 5b4b a23c
00000040: b4c3 29bd 1b12 a7bc 6341 0dbd 071f 823c
00000050: a352 fc3c 3f0b 003c 04d7 753d 6f26 2c3d
00000060: ca76 363d 573d 9c3c c977 18bd 3e4a 3dbd
00000070: 47b8 bebd 64bb 4d3c ab20 4f3c 483b 9b3b
00000080: 7143 3c3d ac2b a5bd 1687 41bd 3c17 253d
00000090: fe30 903c fc04 83bc b984 463d 2998 c53c
000000a0: 5448 b9bc 96dd 743b 2861 823d e5ee a6ba
000000b0: 53ce 8fbc cb64 6c3a 7258 853c f18d 613d
-0.0022049556 0.027673075 -0.03421426 -0.01974204 -0.00061789056 -0.026764724 -0.002826966 -0.06781454
-0.028120004 -0.026964676 0.025969323 0.009771044 -0.0048124176 0.002114502 -0.009237738 0.019811323
-0.041446403 -0.020394376 -0.034486186 0.015883936 0.030801123 0.007815181 0.060019508 0.04202884
0.04454688 0.019072218 -0.03722361 -0.04621338 -0.09312492 0.012556884 0.012642066 0.0047372915
0.045962755 -0.080649704 -0.04724797 0.04030536 0.017601486 -0.015993588 0.048466418 0.024120407
-0.022617497 0.003736352 0.06366187 -0.0012735991 -0.017554438 0.0009017705 0.016277526 0.055067006

transformer.h.0.attn.bias f4 [1, 1, 11, 11]
00000000: 0000 803f 0000 0000 0000 0000 0000 0000
00000010: 0000 0000 0000 0000 0000 0000 0000 0000
00000020: 0000 0000 0000 0000 0000 0000 0000 803f
00000030: 0000 803f 0000 0000 0000 0000 0000 0000
00000040: 0000 0000 0000 0000 0000 0000 0000 0000
00000050: 0000 0000 0000 0000 0000 803f 0000 803f
00000060: 0000 803f 0000 0000 0000 0000 0000 0000
00000070: 0000 0000 0000 0000 0000 0000 0000 0000
00000080: 0000 0000 0000 803f 0000 803f 0000 803f
00000090: 0000 803f 0000 0000 0000 0000 0000 0000
000000a0: 0000 0000 0000 0000 0000 0000 0000 0000
000000b0: 0000 803f 0000 803f 0000 803f 0000 803f
000000c0: 0000 803f 0000 0000 0000 0000 0000 0000
000000d0: 0000 0000 0000 0000 0000 0000 0000 803f
000000e0: 0000 803f 0000 803f 0000 803f 0000 803f
000000f0: 0000 803f 0000 0000 0000 0000 0000 0000
00000100: 0000 0000 0000 0000 0000 803f 0000 803f
00000110: 0000 803f 0000 803f 0000 803f 0000 803f
00000120: 0000 803f 0000 0000 0000 0000 0000 0000
00000130: 0000 0000 0000 803f 0000 803f 0000 803f
00000140: 0000 803f 0000 803f 0000 803f 0000 803f
00000150: 0000 803f 0000 0000 0000 0000 0000 0000
00000160: 0000 803f 0000 803f 0000 803f 0000 803f
00000170: 0000 803f 0000 803f 0000 803f 0000 803f
00000180: 0000 803f 0000 0000 0000 0000 0000 803f
00000190: 0000 803f 0000 803f 0000 803f 0000 803f
000001a0: 0000 803f 0000 803f 0000 803f 0000 803f
000001b0: 0000 803f 0000 0000 0000 803f 0000 803f
000001c0: 0000 803f 0000 803f 0000 803f 0000 803f
000001d0: 0000 803f 0000 803f 0000 803f 0000 803f
000001e0: 0000 803f
1.0 0.0 0.0 0.0 0.0 0.0 0.0 0.0
0.0 0.0 0.0 1.0 1.0 0.0 0.0 0.0
0.0 0.0 0.0 0.0 0.0 0.0 1.0 1.0
1.0 0.0 0.0 0.0 0.0 0.0 0.0 0.0
0.0 1.0 1.0 1.0 1.0 0.0 0.0 0.0
0.0 0.0 0.0 0.0 1.0 1.0 1.0 1.0
1.0 0.0 0.0 0.0 0.0 0.0 0.0 1.0
1.0 1.0 1.0 1.0 1.0 0.0 0.0 0.0
0.0 0.0 1.0 1.0 1.0 1.0 1.0 1.0
1.0 0.0 0.0 0.0 0.0 1.0 1.0 1.0
1.0 1.0 1.0 1.0 1.0 0.0 0.0 0.0
1.0 1.0 1.0 1.0 1.0 1.0 1.0 1.0
1.0 0.0 0.0 1.0 1.0 1.0 1.0 1.0
1.0 1.0 1.0 1.0 1.0 0.0 1.0 1.0
1.0 1.0 1.0 1.0 1.0 1.0 1.0 1.0
1.0

transformer.h.0.attn.c_attn.weight f4 [144, 48]
00000000: 9624 80bd ec7f f63c f025 10bd 7e8c 87bd
00000010: d048 193d fa34 adbc 3642 203b 6c53 9fbd
00000020: 6a12 1abd 9bde 49bd 9d3d 083d c1a0 e23c
00000030: 0ee1 82bb cc2d 343d 3eee bcbb bd50 4cbb
00000040: 5b86 97bd 6064 2abc ed82 cfbd 2a4b 9e3d
00000050: 205c 0abb 29c6 f53c 2264 a43d a608 d33d
00000060: 97d3 423c f4c0 9d3c 4fd3 86bd 8281 c0bc
00000070: 8f98 f4bd 22e2 c33c 2a4b a2bb d01d 42bb
00000080: 2a46 5c3d 2671 54bd 3521 49bd 55e2 463d
00000090: 5b2d 9b3c c5cf 19bd a185 573d e546 c03c
000000a0: d3d1 d6bc bcc2 813c d81b d93d db0f edbc
000000b0: 136a 07bd 3e1a 493b f542 2a3d 26ad 953d
000000c0: b894 3e3c 2784 89bd 5471 493c 1e81 d83d
000000d0: 497e 413d a163 e1bc e8cc 613c a71f 8e3d
000000e0: 841d 633d 01fd 4b3b d0d1 b0bc 466e 0a3a
000000f0: 142b 3b3c bc5c 943a 5abf d23c 590c 5abb
00000100: bf92 5b3d 6f20 093d ce8e 7f3c 507d 29bc
00000110: 49f2 40bd 9b3b 5f3d e7bb a7bc c341 62bd
00000120: b864 81bd 98a5 373c e03e 1a3d f3fc 283d
00000130: 9f03 853d 3397 6cbd bb49 95bd 8d26 353d
00000140: 7ed0 45bd cb49 ff3c c5aa 353d 1081 82bd
00000150: 3811 43bd fc59 323c 645b 29bd e4bc 2cbc
00000160: 9bb7 2dbc 68dd 32bd ea51 75bd 63cc 143d
00000170: 77a6 773c 9d2f 0f3d befe af3a fd18 d1bd
00000180: 08ad 193d d46a b1bd f746 1e3d 40b5 123d
00000190: 4ecd 84bc 3481 703c 4f65 413d 3436 b33d
000001a0: 7aaa 873d a8f6 7f3a 3738 febc 1076 e03b
000001b0: 38dd 103d 7370 e5bb 45f3 8f3c eaf0 0e39
000001c0: b6b4 943d b8cf 303d dcb8 143e 1286 9f3c
000001d0: f34e 13bc 4808 09bd ff4b 9fbd af69 96bd
000001e0: fc72 59bd 2699 5c3c a1ae 743d c323 ad3c
000001f0: 27b3 433d e685 95bd 3b5b eb3c 68e3 1b3d
00000200: 8e56 5ebd f700 643d d220 ee3b 8d54 18bc
00000210: 1b79 51bd 5e7b 4e3d b6ea 3dbd f51b 0f3d
00000220: 1db2 043d 6bb8 78bc dbf1 0dbd 0447 303c
00000230: a936 17bd e976 75bd 6da8 a73c 7471 f4bc
00000240: 1422 10bd c89a 803d 3725 4bbd 4ef9 53bc
00000250: 3b88 aabc 3493 acbc e8f7 03bd 820d 75bd
00000260: 92e4 03ba 6512 2cbd 170e 283b 908d 253d
00000270: b0a7 a83b 7014 ac3b da7d 16bd f88a 543d
00000280: 31d8 bfbc 526e 23bb 2900 7cbd c31e 7fbc
00000290: da73 2e3d fc87 303c ea8f c33d beb7 3c3d
000002a0: b185 c13d 8e2a b13c 1589 94bd 6068 6fbc
000002b0: 9135 ddbd b463 223d bcd8 c93b 3fa7 a73c
000002c0: 3fd5 ed3c 73f0 84bd 089c 7bbd eaa1 153c
000002d0: de57 593d 849c 15bd 5e30 2e3d bb92 ca3c
000002e0: da88 33bc d25e 0e3d f44b 7c3d f527 aabc
000002f0: 7fef e43c 295d 80bc 2f68 f5bc f2e4 5a3d
00000300: ec78 073d 1499 403c 9a73 83bc 2c8d 87bd
00000310: b413 b4bc 6417 8cbc 7e77 1b3c af89 aebd
00000320: c096 82bd 50f2 613d a435 7b3d abc6 6f3d
00000330: 9a4c 7a3d 6fab 84bd a852 9c3b 0eb5 953d
00000340: 1577 55bd f30a 59bc ab4b 7c3c db2c 683c
00000350: 3475 e53c 12bb a1bc 3a90 c23c cc65 24bd
00000360: 42a2 7c3d a467 d83c de00 873c 8dd5 26bd
00000370: 8919 3fbd 7cdd e93c 264e 8e3d 89a9 62bd
00000380: 30fe dc3d 434f 6abd b6a0 35bd 4cda fe3d
00000390: df1d 0b3c 0ad2 97bd 33a9 233d 7f3b d8bb
000003a0: 6b77 8b3c 7d87 70bb 983c c83d 6a75 383d
000003b0: acdf 5fbd 3923 25bc 111c a5bb 91c5 a23d
000003c0: d271 56bb d43a 84bc 5074 483d 659a 973d
000003d0: 7edd 38bc f709 b43c db53 273c 9693 923d
000003e0: dd57 7f3d 8978 cf3c dff4 9dbc 6a31 06bd
000003f0: 4b89 38bd e89d 7f3d 244e 863b 4f53 5fbd
-0.06256978 0.030090295 -0.03519243 -0.06618594 0.037422955 -0.021143425 0.0024453527 -0.07779583
-0.037615217 -0.04928456 0.033261884 0.027664544 -0.0039941138 0.043988988 -0.0057657054 -0.0031176053
-0.07398673 -0.010399908 -0.10132394 0.0772918 -0.002111204 0.030001717 0.08026911 0.10304384
0.011891267 0.019257046 -0.06583273 -0.023499254 -0.11943161 0.02391154 -0.004952808 -0.002961982
0.05377785 -0.05186572 -0.049103934 0.04855569 0.018942526 -0.03755166 0.052617673 0.023471305
-0.026223099 0.015839927 0.10601014 -0.028938225 -0.033060145 0.0030685808 0.04156776 0.07308416
0.011632137 -0.06714659 0.012295086 0.10571502 0.047239576 -0.027513327 0.013781764 0.06939631
0.05544807 0.0031126144 -0.021584421 0.0005280714 0.011423845 0.0011319141 0.02572601 -0.003327152
0.053606745 0.033478197 0.015598012 -0.010344818 -0.04710606 0.054500204 -0.020475341 -0.055238497
-0.06318039 0.011208914 0.03765762 0.041256856 0.06494831 -0.057761382 -0.072894536 0.044226218
-0.048294537 0.031163117 0.04435231 -0.06372273 -0.047623843 0.010885712 -0.041346923 -0.010543082
-0.010602857 -0.04366818 -0.059892572 0.03632773 0.015115372 0.034957517 0.001342736 -0.10209844
0.03751853 -0.08662954 0.038641896 0.035817385 -0.016211178 0.014679242 0.047215756 0.08750573
0.06624313 0.00097642327 -0.031032665 0.0068500116 0.03536722 -0.0070019304 0.017572055 0.00013631923
0.072610304 0.043166846 0.14523643 0.01947311 -0.008990991 -0.033455163 -0.07778167 -0.07344376
-0.053088173 0.013464248 0.05973685 0.021135217 0.047778275 -0.0730093 0.028730026 0.03805867
-0.054281764 0.055664983 0.007267096 -0.009297502 -0.051140886 0.05041062 -0.046366416 0.03493877
0.032396425 -0.015180687 -0.03465448 0.010759119 -0.036917362 -0.059927855 0.020466054 -0.029839255
-0.03518875 0.06279522 -0.049596038 -0.012937857 -0.020816913 -0.021066286 -0.032218844 -0.059827335
-0.0005031313 -0.04200973 0.0025643164 0.040418208 0.005146943 0.00525146 -0.036741115 0.051890343
-0.023418518 -0.0024937582 -0.06152359 -0.015571299 0.042590953 0.010774609 0.09548934 0.046073668
0.09449328 0.021626737 -0.07252709 -0.014612287 -0.108012326 0.039645866 0.00615987 0.020465491
0.029032348 -0.064911745 -0.0614281 0.009132842 0.053062312 -0.036526218 0.042526595 0.02472817
-0.010957921 0.034758396 0.061595872 -0.020771006 0.027946232 -0.015669422 -0.029956905 0.053440996
0.033074304 0.011755247 -0.016046334 -0.06618723 -0.021982051 -0.017100997 0.009488938 -0.08522355
-0.063764095 0.055162728 0.061330453 0.058539074 0.06110821 -0.06478011 0.0047705956 0.07309924
-0.05211552 -0.013247239 0.0153989 0.014170851 0.028009988 -0.019742522 0.023750413 -0.040136144
0.06167818 0.026416607 0.016479906 -0.040731 -0.04665521 0.028547995 0.069484994 -0.055337463
0.1079067 -0.057204496 -0.04434272 0.124439806 0.008491009 -0.07413109 0.039956283 -0.0065988894
0.017024716 -0.003670185 0.09777182 0.04503385 -0.05465667 -0.0100791985 -0.005038746 0.07947839
-0.003272165 -0.016141333 0.04893905 0.07402495 -0.011283277 0.021977408 0.010212864 0.07157056
0.062339652 0.02532603 -0.019281803 -0.03276197 -0.045052808 0.06240645 0.0040986706 -0.05452281

transformer.h.0.attn.c_attn.bias f4 [144]
00000000: 0868 653e 03f7 51be d152 51be b2ca 5b3e
00000010: f719 4d3e e364 58be 3736 52be b825 10be
00000020: 69b3 51be e5bb 58be da8f 403e 90ce 7abe
00000030: 3e81 50be 111e 67be 366a 5b3e 151b 5f3e
00000040: 8e2a 773e fa08 6c3e a11b 633e 9083 5bbe
00000050: 28b9 69be ca79 53be 7fe9 453e 6a20 653e
00000060: 8946 5fbe 17ac 6b3e f70f 703e 43a7 093e
00000070: a56f 6bbe d626 6d3e c7ee 603e 2143 3fbe
00000080: ca7f f7bd 425b f7bd 76b1 06be c823 06be
00000090: ab8e a93d 512a 023e 2e0a fbbd f914 b63d
000000a0: 94e7 ee3d d759 ebbd 319f c1bd 1810 e43d
000000b0: 2cf8 e93d 87ed 023e e60a e2bd 57c6 f7bd
000000c0: 02e7 feb8 b0b0 3938 113b 2e38 84b0 44b9
000000d0: fb82 0339 a0a0 a5b8 f208 2739 a426 3437
000000e0: 01b9 26b9 1a84 a3b7 679f d037 fa8d 2339
000000f0: f685 9a37 4308 3338 bad1 9137 8f73 7439
00000100: 9300 37b8 f12b 5439 e07b 5539 a8e9 df38
00000110: 4dc6 e5b8 708d 05b9 2478 2b39 d95e fd39
00000120: 4dea e3b9 5bfb 79b7 f26a 32b9 ebb4 5638
00000130: 8a6e e6b9 d487 9038 f57c b7b8 1219 bbb8
00000140: d206 7d39 c5a9 18b7 d984 abb9 0d98 29b9
00000150: 797f 1639 0c3a 2639 5355 e7b7 a6b9 c6b9
00000160: a9fe 5db8 a7be 56b9 3048 0ab8 98dd 5739
00000170: 9a4f fa39 36b1 12b9 1289 ed38 2a19 3139
00000180: 6497 48bc 6dba 5ebc d547 7cbb b3cb 2e3c
00000190: 18aa 08bb 13fa 27bc 7322 d7bb 0969 b5bb
000001a0: 3353 d4ba 9066 373c e0e2 e439 87ab 283a
000001b0: aeab 213c 9b8e 01bc 6ff7 893c 932d eabb
000001c0: 382b eebb e725 9dbb 5ad7 ad3b 2c32 2b3c
000001d0: efd8 83bb eacb adbb 3046 8b3b fd2f 003c
000001e0: b708 6e3b 5d65 9d3b b769 893c ebec 8a3b
000001f0: 0a6f 033c cbd2 cebb 332c 30bb 45b5 39bb
00000200: 9d5c b93b 375c 1fbc 99e7 e23b 5590 31ba
00000210: 1576 153a 13be 2b3c d5f2 5bbc 27f9 bc3a
00000220: 5851 283c 1de9 70bc 95b0 3ebc 6269 733c
00000230: 6d80 163b af9b b0bb f309 6c3c 2078 8437
0.22402966 -0.20504384 -0.20441748 0.21464041 0.20029436 -0.21132235 -0.20528494 -0.14076889
-0.20478596 -0.21165426 0.18804875 -0.2449286 -0.20361802 -0.22570063 0.21427235 0.21787675
0.24137327 0.230503 0.22178508 -0.21436906 -0.22824538 -0.20651928 0.19327353 0.22375646
-0.21804251 0.23014866 0.2344359 0.13442712 -0.22991808 0.23159346 0.21966086 -0.18677951
-0.12084921 -0.12077953 -0.13153633 -0.13099587 0.08279165 0.12711455 -0.12257801 0.08890719
0.11665264 -0.11491745 -0.094541915 0.11135882 0.11424288 0.12785922 -0.11037235 -0.12098377
-0.000121546924 4.427199e-05 4.1539843e-05 -0.00018757774 0.00012541928 -7.897732e-05 0.00015929693 1.0737833e-05
-0.00015899913 -1.9492629e-05 2.486976e-05 0.00015597782 1.8420611e-05 4.268462e-05 1.7383009e-05 0.00023312702
-4.3631135e-05 0.00020234265 0.0002035941 0.000106769905 -0.00010956507 -0.00012736558 0.00016352587 0.00048326587
-0.00043471382 -1.490008e-05 -0.00017015243 5.119007e-05 -0.00043951377 6.891755e-05 -8.749395e-05 -8.9215246e-05
0.00024130501 -9.099434e-06 -0.0003271464 -0.0001617374 0.00014352602 0.00015852618 -2.7577078e-05 -0.00037903822
-5.2927677e-05 -0.00020479654 -3.2968994e-05 0.00020586548 0.00047743024 -0.00013989661 0.00011326572 0.0001688941
-0.012243126 -0.013594252 -0.0038494964 0.010668683 -0.0020853337 -0.010252493 -0.006565386 -0.005536203
-0.0016199112 0.011193886 0.00043656584 0.0006434251 0.009867592 -0.007907535 0.016841618 -0.007146546
-0.0072683357 -0.004795778 0.005305213 0.010448974 -0.0040236632 -0.0053038495 0.0042503104 0.007823941
0.0036321112 0.004803343 0.016774042 0.0042396686 0.008022079 -0.0063117496 -0.0026881814 -0.0028336805
0.0056567923 -0.009726576 0.0069245812 -0.00067735213 0.00057014945 0.010482329 -0.013424595 0.0014417515
0.0102733 -0.014704016 -0.01163878 0.014856668 0.0022964731 -0.0053896527 0.014406669 1.5791564e-05

transformer.h.0.attn.c_proj.weight f4 [48, 48]
00000000: aea3 2cbb 7220 21ba e363 7abc ac8b b1bb
00000010: 8668 763d 0f44 77bd 8b2e a8bc 92f4 b0bc
00000020: 4d4f b0bc 1727 8e3c b94c 943c e2d0 993c
00000030: c208 133d b061 75bd 1e11 05bd 1db5 443d
00000040: 7cbc da3b ae22 913c 1c6e cabc 96f9 c63c
00000050: 4149 7ebb 58a2 11bc bcc9 153d 7768 ccba
00000060: 9b45 9bbc 07eb 3abc 7181 d5bc eaa5 af3b
00000070: b536 18bc 0c18 06bc 58bc 0e3d d6da 333d
00000080: 9f6e 47bc e803 653d a1c7 7abc 5adf 2b3b
00000090: dcb0 173c dd81 e73b 5a0a 42bd a822 d13c
000000a0: 9dfd debc 0bb5 61bc 2be2 883d f648 1b3d
000000b0: fb68 1fbc b5f7 95bd 022d d03c ff7f 2b3d
000000c0: f29a 6c3d 896c 433d cd11 603c 454a 44bd
000000d0: 1d77 393d 96b7 22bd 6302 0d3d d6f3 a5bc
000000e0: 590f 8dbd 6105 0abd 828d bfbc 2c63 633d
000000f0: 0f69 01bd a074 833b e6f4 4d3c 0a1e 623c
00000100: 5668 05bd 1586 063c 69a1 3c3d b82b f83c
00000110: a0af c03b e0e0 b8bc a298 023d fc24 7cbc
00000120: a48c 58bd 4b61 923b 6e5c 57bc fa4d 32bd
00000130: 6f49 dcbc 433d 7cbc 2c47 213c 0a0a 8cbc
00000140: b4cd 9cbc 443b 7cbd f770 b83c 0750 803c
00000150: 708a d03c 496a 3e3c f6a6 253c 8f28 06bd
00000160: 4d5e 29bd 4fc3 b93c 3b87 19bc 4de8 d2ba
00000170: 6caf 96bc a9cd 91bc 6177 aebb 4e82 c93c
00000180: e6ba b7bc 2464 be3c cb68 043d e2eb 0fbd
00000190: 2ff5 143c 09c7 883d e5e0 bebb ecc7 93bc
000001a0: 37f9 04bb 9587 fd3c 8e88 4bbd 031b 3abd
000001b0: b417 dcbb 4b17 643c b984 203d acc8 443c
000001c0: 96ee a2bc c5b7 e3bb 1177 05bd 6699 4abd
000001d0: 2c11 46bd f4e7 ffb9 3b69 96bb 192c ddbb
000001e0: 4b69 93bc 0804 ac3c 1e40 79bd 000f 26bd
000001f0: 6ca2 193d 0209 61ba 3f20 f5bc af69 5abb
00000200: 658f e5bc 328b 37bc 87d4 4fbd 3c6e d7ba
00000210: e09e eeb8 4db8 c63c 0b1a 2e3c 117c e2bc
00000220: 3bfc 67bd c707 56bc 9f5d 7cbc 78c9 78bd
00000230: e3c8 c43c 765d 763d 065f bdba 5c3d 92ba
00000240: 7672 393d 1e8c 8ebc 122a c13c cb63 de3c
00000250: b0fc 883b 1f25 183c 8599 683c a26b 4abc
00000260: 2bd2 363d 7ecc 61bd a8a8 f13c 0736 52bd
00000270: af5f 70bc 2f8a e7ba 6994 3ebc 5880 0ebc
00000280: 1797 c83c 3b68 bf3b 84e3 a4bc 0db8 373b
00000290: 509e 3c3d c311 6d3d 8d47 be3c a4b3 95bc
000002a0: 0505 02bd 77e7 5ebc 9b07 b8bb 3954 f03c
000002b0: f1b8 22bd 17a5 953b f45e 25bd 13ef d8bc
000002c0: 7931 b63d f02d ecba 858d 02bc 1e54 583a
000002d0: 7b84 343d ed60 bfbc 93c2 fc3c 4e90 4cbd
000002e0: e0fd 53bd 5e88 b23c 2aee 9cbc 111a 283d
000002f0: 339e 6c3b 2c2a 3ebb 70bb e5bc a78f d33c
00000300: 6c1e 3e3d 459f 99bb 659f 713c a924 123d
00000310: fc80 ef3c c34b c0bc fa96 873c 8609 a8bc
00000320: 29ca afbc 4192 7d3d f35b 80bc ea48 a03c
00000330: 0401 a9bc 2327 b93c d51f 8dbc 7a7f 05bd
00000340: ff0b 25bd d5c0 4bbc 585b 62bd 2a18 da3c
00000350: 5edf cd3b a6af 81bc bcd2 aebc bf64 b1bc
00000360: d588 c3bc 1e32 653c 8246 843d 7fbf 123d
00000370: 3364 76bd 4ec2 0dbd 8adf c83b cecf 5cbc
00000380: 40fd c63b 8d0f 583c bb7d 9b3d d831 5fbc
00000390: b87e 69bc b7d5 433d d41d d2bb 1672 643d
000003a0: 1e35 8e3d 93f1 ca3c f664 5ebd b7b5 f2bc
000003b0: b207 523c 8494 0a3d f2d6 74bc 3ea0 86bc
000003c0: 3110 1c3c 2f2c de3c 0ddb ff3b a54e 993c
000003d0: 8951 1c3d 6f31 5c3d 07f5 e03c 2ebb 1abd
000003e0: 1e76 37bc bd3c 393c cec8 283c e905 283d
000003f0: f4a0 233d b006 e4bc 64c1 1a3b dbe3 1ebc
-0.0026342678 -0.00061464973 -0.015282604 -0.0054182615 0.060158275 -0.06036764 -0.020530006 -0.021600995
-0.021522189 0.017352624 0.01810299 0.01877636 0.035897024 -0.059907615 -0.032487027 0.048024286
0.006675301 0.017716732 -0.024710707 0.024288934 -0.0038800987 -0.008888803 0.036569342 -0.0015595098
-0.018954089 -0.011408574 -0.026062699 0.0053603547 -0.009290387 -0.008184444 0.034847587 0.04390987
-0.01217237 0.05591193 -0.015306384 0.0026225657 0.009258475 0.0070650415 -0.047373153 0.02552922
-0.027220542 -0.013776074 0.06683763 0.037911378 -0.009729619 -0.07322637 0.025412086 0.041870113
0.057764955 0.04771093 0.013676119 -0.04792239 0.04527961 -0.039725862 0.034426104 -0.020257872
-0.06887693 -0.033696536 -0.023382906 0.0555145 -0.031594332 0.0040117055 0.012570595 0.013801107
-0.032570206 0.008210679 0.04605237 0.030294284 0.005880311 -0.022568166 0.031883843 -0.015389677
-0.0528685 0.0044671646 -0.013144596 -0.043531395 -0.026890485 -0.015395465 0.009843629 -0.01709463
-0.019141056 -0.061579958 0.022514803 0.01566316 0.025456637 0.01162202 0.010110607 -0.032753523
-0.041349698 0.022676138 -0.00937062 -0.001609096 -0.018394195 -0.017798262 -0.0053242897 0.024598267
-0.022427987 0.02324111 0.0323265 -0.035137065 0.009091659 0.06678588 -0.0058251494 -0.018039666
-0.0020290145 0.03094844 -0.049690776 -0.045435917 -0.006716693 0.013921569 0.039189074 0.0120107345
-0.019889157 -0.0069493973 -0.032584254 -0.0494627 -0.04835622 -0.0004881021 -0.004590181 -0.0067496416
-0.017994544 0.020998016 -0.060852163 -0.04054165 0.037508413 -0.0008584411 -0.029922603 -0.0033327152
-0.028022477 -0.01120262 -0.05073979 -0.0016436051 -0.00011378317 0.024257803 0.010626326 -0.02764705
-0.05663703 -0.013063378 -0.01540318 -0.06073901 0.024021572 0.060147725 -0.0014447875 -0.0011157203
0.045275174 -0.017400797 0.023579631 0.027147194 0.0041805133 0.009286194 0.014196758 -0.012354763
0.044634026 -0.05512666 0.029499367 -0.051321056 -0.01467125 -0.0017665083 -0.011632063 -0.008697592
0.024486108 0.0058412827 -0.02012802 0.0028033287 0.046049416 0.057878267 0.023227477 -0.018274136
-0.03174307 -0.01360499 -0.005616141 0.029337035 -0.039727155 0.0045667994 -0.040373757 -0.026481187
0.08896155 -0.0018019062 -0.007968311 0.00082522805 0.044071656 -0.023361648 0.030854499 -0.049942307
-0.051755786 0.02179354 -0.019156534 0.041040484 0.0036105036 -0.0029016836 -0.028043479 0.025825335
0.04641573 -0.004688176 0.014747475 0.035679493 0.02923631 -0.023473626 0.016551483 -0.020512354
-0.021458702 0.061907057 -0.015668845 0.019566018 -0.020630367 0.02260167 -0.017227093 -0.032592274
-0.040294643 -0.012436111 -0.055262893 0.02662285 0.006282731 -0.015830826 -0.02134072 -0.021654485
-0.023868958 0.013989 0.06458761 0.035827156 -0.06015415 -0.03460913 0.0061301636 -0.013477279
0.00607267 0.013187301 0.075923406 -0.0136227235 -0.0142514035 0.047811236 -0.006412247 0.055772863
0.06943725 0.024773395 -0.054295503 -0.029627664 0.0128192175 0.03383304 -0.014943825 -0.016433831
0.009525345 0.027120678 0.0078080953 0.018714258 0.038163695 0.05375808 0.027460588 -0.037776165
-0.011197595 0.011305985 0.010301782 0.04102126 0.03994842 -0.02783522 0.0023613805 -0.00969788

transformer.h.0.attn.c_proj.bias f4 [48]
00000000: 2d5b 5ebb c368 01bb 3a7b 0cbc 341c f8bc
00000010: 6d02 6ab9 a509 6fbb 1ed6 9c3b e2b1 20bc
00000020: 4c23 4dbc 1941 3abc 9df6 8bbb 0ac5 c7b8
00000030: bc42 0d3b 03c3 243b b8ac 8ebc 74be 9138
00000040: bc94 d4bb d180 02bc 6598 60bb de77 e63a
00000050: 4848 1d3c eedc 2fbb 22f2 543c 4d8f 653b
00000060: 384e 8e3a 3671 3d3c 33d9 343c 3b51 6ebc
00000070: e718 c8b9 6791 2fbc c6fc 71bb 4a23 08bc
00000080: d306 613b f24a 6abc e291 01bb 2e65 7f3c
00000090: 78e5 893c 17d5 b3ba 9f35 413b d12c f03a
000000a0: 9584 20bb 9272 f2bb 87c1 423b c7a2 c93b
000000b0: 871d c53b 37c1 71bb 384f 9f3b b0d8 9b3c
-0.0033928857 -0.001974628 -0.008574301 -0.030286886 -0.00022316883 -0.0036474254 0.004786267 -0.009808036
-0.012520622 -0.01136806 -0.004271342 -9.525761e-05 0.002155467 0.002514065 -0.017416343 6.9496135e-05
-0.006487457 -0.007965283 -0.0034270522 0.0017583331 0.009599753 -0.0026834565 0.012997182 0.003502804
0.0010857051 0.011562636 0.011038112 -0.014545734 -0.00038165526 -0.010715819 -0.0036924346 -0.008309195
0.0034336343 -0.014300095 -0.001977079 0.015588088 0.016833052 -0.0013720122 0.0029481424 0.0018323903
-0.0024493088 -0.0073989118 0.0029717402 0.006153438 0.006015483 -0.0036888847 0.0048617385 0.019024223

transformer.h.0.ln_2.weight f4 [48]
00000000: 5acd 7b3f 47a0 763f d77c 803f e26d 813f
00000010: 00e4 813f 5ca0 843f 057e 783f 27b4 803f
00000020: 8d7b 803f 2c78 7e3f 7a71 803f 3620 803f
00000030: 0f23 793f b4e5 7e3f 70b5 7a3f f68b 783f
00000040: 9230 803f fd09 7e3f 5719 723f 4f4c 803f
00000050: 6fc3 793f 04b0 7b3f 9952 813f c73c 793f
00000060: a608 7d3f b75e 7c3f f7aa 733f 4d0f 813f
00000070: 3de0 803f 844a 7e3f ce6c 843f 8ec8 7a3f
00000080: e295 843f f459 823f f866 7a3f 4078 783f
00000090: 6bdc 793f 9b07 763f ea0a 793f d247 7c3f
000000a0: 5d0e 7d3f d8c7 783f c124 7e3f 64e8 783f
000000b0: 72bc 803f 6ac9 753f e84b 823f ef67 803f
0.98360217 0.96338314 1.0038098 1.0111659 1.0147705 1.0361438 0.9706729 1.0054978
1.0037705 0.9940212 1.003463 1.000983 0.9731912 0.9956925 0.979331 0.97088563
1.0014822 0.9923399 0.94569916 1.0023288 0.97563833 0.98315454 1.0103332 0.97358364
0.9884132 0.98582023 0.95182747 1.0082794 1.0068432 0.9933245 1.0345705 0.9796227
1.0358241 1.0183702 0.9781337 0.97058487 0.97601956 0.96105355 0.9728228 0.9854709
0.9885004 0.9717994 0.9927483 0.972296 1.0057509 0.9601046 1.0179415 1.0031718

transformer.h.0.ln_2.bias f4 [48]
00000000: 81fe 8a3c 9cee 51bc 3bc4 bb3a fb6e 223c
00000010: 58e1 a83b 4793 01bb fbfd 733c 3740 9a3c
00000020: fdba 243c aef3 a3bc 3ac5 473c 4fb8 bebb
00000030: 6e66 773c 3aa0 5f3c 4dd6 38bc 7f75 75bc
00000040: 1522 113b 6eaa c0bb 44a4 0fbb 320c 063c
00000050: 7f5c f5ba 40e9 79bb 82b4 6b3a 2a3f 7dbc
00000060: 10bb 28bb 550c c63c 8c11 533b 3768 a93b
00000070: b5be 89bc 761c a7bc c25b 603a 1716 6fbb
00000080: 180c 94bc 476f 22bc a0a0 9dbc e4e4 66bc
00000090: ed98 8738 eccc 413c 2a7f cd3a b915 98bc
000000a0: f317 72bc f089 1dba a482 acbc 54cd a6bb
000000b0: 9a0a 08bb cf1a 21bd 9351 8639 9dd2 aabc
0.01696706 -0.012813237 0.0014325449 0.009914155 0.005153816 -0.0019771622 0.014892097 0.018829448
0.010054347 -0.020013656 0.012193019 -0.005820311 0.015100105 0.013649041 -0.011281562 -0.0149816265
0.0022145559 -0.005879692 -0.0021917978 0.0081816185 -0.0018719583 -0.0038133413 0.00089914363 -0.015456954
-0.0025746264 0.024175802 0.0032206504 0.005169894 -0.016814569 -0.020399313 0.0008558595 -0.0036481672
-0.018072173 -0.009914226 -0.019241631 -0.014092658 6.465786e-05 0.011828642 0.0015678157 -0.018565046
-0.014776218 -0.0006009629 -0.021058388 -0.005090395 -0.0020758272 -0.039332207 0.0002561925 -0.020852381

transformer.h.0.mlp.c_fc.weight f4 [192, 48]
00000000: 4037 7cbc a270 b6bc 8738 a4ba b08c 0c3c
00000010: 2464 bc3c 2f14 f83c 4baa 17bc d133 a5bb
00000020: 29a9 e23c d9cf 533c dc65 383c a929 733b
00000030: be40 f8bb 3478 e8bc 5d95 7d3c ebd7 f13c
00000040: f0e5 4f3c fab2 73bb 15cd 62bc f080 c33c
00000050: 6223 debc cecb 13bc 96ea 4c3b 6f43 953c
00000060: 24a5 843c 2bbd e1bc ddc9 a73c b3e2 65bc
00000070: 5888 1b3d 49e1 3abc fb6e bc3c 754c acba
00000080: ee57 07bc a1db ba3c 638f 4e3d fc6e bebb
00000090: a5f3 183c 9387 673b 545b 8c3c 81ea d9bb
000000a0: 4b8c 00bd e8d0 4bbc 074c 25bd b0d6 e2ba
000000b0: 432d 2f3b 98a2 0cbc c6df 5fbc 9b1b 033d
000000c0: f26f d83c 55b6 87ba f2df bcbc 22f6 d43b
000000d0: 4146 3f3d 8399 193d 8f30 a73b 9dd7 363d
000000e0: 7702 89bb b192 3c3d c069 85bc 84c8 8e3c
000000f0: cc23 b8bb f064 5d3c 5427 bc3c de38 27bd
00000100: 6de8 ff3c 41ed 14bd 9a08 e93c f065 21bb
00000110: 0aa7 e63b 8e5d e7bb e961 4ebc b690 febc
00000120: a2e2 29bd dccd 973c b157 163d a080 903d
00000130: f485 8d3d 03ff 4c3d c5d6 46bd 09ae adba
00000140: 789f bbbc 93c0 073d e51b e5b9 fbcb 4bbd
00000150: 4dd8 2cbd df29 dfbc 7422 7bbb e61b 00bc
00000160: 282f cf3c 3997 473a 77cb 67bc b156 38bc
00000170: 5ab4 ed3c 1f51 80bd c1be 553d 8e1f 36bd
00000180: dff2 bf3c 8f94 023d bb6a ca3c e469 f0ba
00000190: 996f d63c 3458 943c c668 c8bb c31a 6abc
000001a0: ae07 0f3d 62e3 5dbc 81db be3c 8425 13bc
000001b0: 4e44 1c3a 8e9a a8bc dc53 65bc 7a7e fabb
000001c0: 3516 60bc 2055 b03c c8ef bf3c 833d 6a3b
000001d0: 972b 5e3a ac64 53bc e269 8439 39d7 043c
000001e0: 8b25 b6ba 25a1 563a 6b57 643b 5699 b9bc
000001f0: e62c 723c 5cd6 58bc 53a0 8f3c 7c09 debb
00000200: 8d67 733c d914 1d3d 482e b63c 8c79 b7b9
00000210: 0875 2e38 ae41 e6bc 3e66 d53c b880 5a3c
00000220: 19eb bc3c d546 be3b 77e8 dc3a 4d81 c03c
00000230: 92e0 193c 40d7 86bc 9de5 05bd 69ba 083c
00000240: f6b7 82bc 3c46 49bc 593a 08bc aaaa 6cbc
00000250: 5030 363c 689e 3dbc a459 14bc 1707 a93b
00000260: df5a 0cbd 4af8 5f3c e5ab 4cbd d482 9abc
00000270: c3e7 ed3a d1b1 653c 4a8e 01ba 2d73 293c
00000280: f2c2 163d 4f40 a6bc 09aa 89bc 9f46 74bb
00000290: f0ed babc 48e3 093c aeda c2bc ded5 be3c
000002a0: c451 bb3c b8e7 3ebc 9029 963c 7d02 20bb
000002b0: 8354 913b 488e e83b ea2b b93c 82d9 243d
000002c0: a200 9b3c 0396 663c f7c9 f1b9 f303 1abc
000002d0: 42e2 dcbb 06a6 ba3b 3caa 3e3c 31e5 b73c
000002e0: c648 07bc 9050 70bc 994a 023c 411e 8f3b
000002f0: c744 99bc 5d59 883b d574 d5bc 4c8b 22bc
00000300: 2677 30bc 043c 31bc 8ee9 2abd 9839 463a
00000310: c23d a03c 8a8d 103d da6b 64bc d621 b13c
00000320: c317 0c3c 7926 923d e083 bbba 7fde a93b
00000330: 936c 7fbd 3795 d43c 0323 173c 3d63 1e3c
00000340: 979d 3e3d f097 4bbd eea1 cf3c 4939 5abd
00000350: c2c9 003b 1741 cabc fa7b b6bc 8db6 91bd
00000360: 21d8 19bd 7c5c 2dbb 19c8 853c 457a 093d
00000370: a87d 653c 3ff0 11bc 6617 81bd caea 6cbc
00000380: 3c58 1cbd 2458 ce3c b603 0abc 3e21 26bc
00000390: 86d9 313d 24b0 d5bb 10c1 85bd 0a2d f0bb
000003a0: 8ccd 36b9 4c18 8ebc fb95 c6bc 08a6 35bd
000003b0: 6fb0 4e3d cdac 0ebd 6d86 c13c 5282 ba3b
000003c0: 2b22 f53b 423e c93c 589a b73c e212 23bc
000003d0: 2960 ee3b 268e 8abc 87d7 50bc 0e7c cb3b
000003e0: db68 2f3c 3625 b1bc f64d bb3b 5902 963c
000003f0: e4ce f63b f57c b5bc a58e 033b 94df 3ebc
-0.015394032 -0.022270504 -0.0012529053 0.008578464 0.02299697 0.030283062 -0.00925691 -0.0050415774
0.027668552 0.012927973 0.011254754 0.0037103689 -0.0075760772 -0.02837763 0.0154775055 0.029521903
0.012689099 -0.0037185536 -0.013842841 0.023865193 -0.027116481 -0.009020759 0.0031267754 0.018220631
0.016192026 -0.027556023 0.020481998 -0.0140311 0.037971824 -0.011406251 0.023002138 -0.0013145345
-0.00826071 0.022809805 0.050429713 -0.00581157 0.009335433 0.0035328611 0.017133392 -0.0066502695
-0.031383794 -0.012439944 -0.04035571 -0.0017306414 0.002672986 -0.008583687 -0.013664192 0.03200875
0.026420567 -0.0010354022 -0.023056004 0.006499068 0.04669786 0.037499916 0.005102224 0.04463922
-0.004181202 0.046038333 -0.016285777 0.017429598 -0.0056195017 0.013512835 0.022967972 -0.040825717
0.031238759 -0.036359075 0.028446484 -0.002462741 0.0070389556 -0.007060713 -0.012596586 -0.031074863
-0.0414759 0.018530779 0.036704723 0.07055783 0.06910315 0.050047886 -0.048544664 -0.0013250719
-0.022903189 0.033142637 -0.00043699067 -0.049755078 -0.042198468 -0.027241645 -0.0038320096 -0.0078191515
0.02529104 0.00076137815 -0.014147631 -0.011251138 0.029016662 -0.062654726 0.05218387 -0.044463687
0.02343124 0.031879958 0.024709096 -0.0018342105 0.02617626 0.018108465 -0.0061160056 -0.014288607
0.034919433 -0.013542982 0.023298027 -0.008981112 0.0005961106 -0.02058151 -0.013997044 -0.0076444717
-0.01367717 0.021524966 0.023429766 0.003574223 0.00084751233 -0.01290242 0.0002525589 0.008107954
-0.0013896687 0.00081874646 0.0034842144 -0.022656124 0.014781212 -0.013234701 0.017532503 -0.006776033
0.014856231 0.03834996 0.022238865 -0.0003499504 4.1593827e-05 -0.02810749 0.02604973 0.013336353
0.023061322 0.0058067837 0.0016853948 0.023499155 0.009391921 -0.016460061 -0.03268968 0.008345225
-0.01595686 -0.012284812 -0.008314692 -0.014444986 0.011119917 -0.0115734115 -0.009054575 0.005158316
-0.03426635 0.013670037 -0.04996862 -0.018861212 0.0018150735 0.0140194455 -0.0004942162 0.010342401
0.036807008 -0.020294337 -0.016804712 -0.0037273539 -0.022818536 0.0084160045 -0.023785915 0.02329534
0.022866137 -0.011651926 0.018330365 -0.0024415546 0.0044351234 0.0070970394 0.022603948 0.040246494
0.0189212 0.0140738515 -0.00046117578 -0.009400356 -0.006740839 0.005696061 0.011637267 0.022448154
-0.008257097 -0.014667645 0.007952356 0.00436762 -0.018709553 0.0041610436 -0.026056686 -0.009920906
-0.010770595 -0.0108175315 -0.04172664 0.0007561683 0.019560698 0.035291232 -0.013941729 0.02162258
0.008550587 0.07136244 -0.001430627 0.0051839943 -0.062359404 0.025950057 0.009224656 0.009667215
0.046537008 -0.049705446 0.025345769 -0.053277288 0.0019651507 -0.02468924 -0.022275914 -0.07114897
-0.037559632 -0.002645283 0.016330766 0.03356387 0.01400701 -0.008907377 -0.06303291 -0.014460275
-0.038170084 0.025188513 -0.008423736 -0.0101397615 0.043420337 -0.0065212417 -0.065309644 -0.007329588
-0.00017433445 -0.01734557 -0.024241438 -0.044347793 0.05046123 -0.034832764 0.02362367 0.005691805
0.00748088 0.02456582 0.022412464 -0.0099532325 0.007274647 -0.016913485 -0.012746698 0.006209857
0.010706152 -0.021624189 0.005716081 0.018311666 0.0075319875 -0.02215431 0.0020074036 -0.011649985

transformer.h.0.mlp.c_fc.bias f4 [192]
00000000: 8e88 edbb f12d 5bbc 2982 19bd c182 34bc
00000010: baa1 0eba 42f4 90bc 0d9f 79bb 2511 10bc
00000020: 320e 803b 075b 86bc 9e25 6bbc 3d9a 0bbd
00000030: d695 a0bc d214 aebc 6f04 f8bc 815b 3fbb
00000040: 2c57 60bc 00a6 bebc 85e7 b8bc 3965 a2bc
00000050: d7d2 ec3b 9643 aebc fd93 12bc 956d 08bc
00000060: 3b9b 54bc 49fb a6bc be68 e0bb d423 c9bc
00000070: 2646 99bb a207 b9bc a2e4 27bc e7d0 d9bc
00000080: 7ae5 0cbc d3a5 9abc b7d6 25bb 9058 0abd
00000090: 9dd9 b4bc f893 f0bc 972c 1abc 7407 37bc
000000a0: 7507 4cbc d02f aabc dfc6 9ebc 1539 9abc
000000b0: ef9a d4bc 3ccb a6bc 9a6f a63b 6140 91bc
000000c0: 7b15 b1bc 5e31 a9bc fb27 9dbc 8536 52bc
000000d0: 1463 2bbc 1b72 76ba 7f0e b8bc 5701 653b
000000e0: 04b8 cebc 22dd c7bc c625 12bc 2013 71bb
000000f0: 3f61 7ebb fc17 36bc fd00 acbc b646 eabc
00000100: 079a 6abc 4bb3 bebb 47fe 323c 968f 9f3b
00000110: cfc9 1bba 8503 85bc 4add 69bc b7f1 f03a
00000120: 5fe5 3dbc cc30 88bc aae6 63bc cfcc bfbb
00000130: f2cd c23b 0a43 a5bc 74dd b1bc ba83 febc
00000140: ab60 bdbb 396a 8fbc b8c4 87bb e32c ccba
00000150: 47b3 c1bc 3672 efbc f147 593a 5c6e 99bb
00000160: e94e a0bb e2c8 0cbc 2957 05bc 8c8d 92bb
00000170: 4875 c7bc c474 8cbc abd5 7cbc ab88 c9bc
00000180: 9338 b4bc 4cbf 0cb6 a071 f3bc c6f7 9639
00000190: 9f53 ccbc a53f 90bc 34b6 c2bc 4030 a0bb
000001a0: fb94 58bb 6c84 4cbc 5380 b6bc e4f1 bebc
000001b0: 9fad 05bc 97fe 753a 91f9 91bc 3d0a 4bbc
000001c0: e5bd acbc aab8 94bc 675a d73b cd9f 873c
000001d0: 1efd 18bc 9871 2c3c fe24 09bd 9e98 b9bc
000001e0: d7e4 9bbc 082a f9bc 980e ffbb c0d3 95bb
000001f0: ac9f b4bc ca37 3ebd 8197 e5bc bf5f 623b
00000200: 00ad b7bc b497 97bc b0ce b0bc f901 5fbc
00000210: f67a a53b 2b09 65bc 6355 7abc bfc9 1abc
00000220: 9cec 6b3a 949b 40bc 6b6f d8bc 610c 93bc
00000230: 9a53 abbb d4ff 87bc 1cca cbbb 5047 a8bc
00000240: 1f2e b1bc de9a 413b a323 05bc 40ac 28bb
00000250: c721 b0bc dee3 47bc a44c d6bb decb f8bb
00000260: e0d7 acbc b75b 8b3b b7b9 c0ba 1ecc 5bbc
00000270: cfc8 f1bc d346 4dbc e6b5 14bc cf93 a5bc
00000280: 25cf 7dbc 7bb2 94bc d646 c33b 7cf4 be3b
00000290: d7d5 4ebc aa2e 99bc a010 07bd 2b46 39bc
000002a0: 0a8a 22bc 9491 b9bc 6e7d e9bb b4c2 a9bc
000002b0: 66c1 aabb d7cb 21bc 5d92 9fbc deab a9bc
000002c0: b4b3 41bc db5d 2cbb 142c a93a 5002 d4bc
000002d0: 21c9 6ebc 6a1a 79bc 0648 c63b 7d82 783c
000002e0: ce61 cebc ef35 81bc aeb7 bbbc fb78 83bc
000002f0: 14b4 a9bc 0615 9ebc a557 d9bc 2ba7 a339
-0.0072489446 -0.0133776525 -0.037477646 -0.011017502 -0.0005440969 -0.017694596 -0.0038089186 -0.00879315
0.003907942 -0.016400827 -0.01435223 -0.03408264 -0.019602697 -0.021250162 -0.030275552 -0.0029198828
-0.013692658 -0.023272514 -0.022571335 -0.019823657 0.0072272825 -0.021272462 -0.008946416 -0.008326908
-0.012976463 -0.020383494 -0.0068484237 -0.024553217 -0.004677552 -0.022586647 -0.010247381 -0.02658887
-0.008599633 -0.0188779 -0.0025304982 -0.033775866 -0.022076422 -0.029367432 -0.009410045 -0.011171211
-0.01245295 -0.020774752 -0.019381939 -0.018826047 -0.025952784 -0.020360582 0.005079222 -0.017730894
-0.021616688 -0.020653423 -0.019184103 -0.012830381 -0.010460634 -0.00094011583 -0.02246785 0.0034943426
-0.02523423 -0.024397437 -0.008920139 -0.003678508 -0.0038815287 -0.011114117 -0.020996565 -0.02859817
-0.01431895 -0.005819713 0.010924882 0.0048694117 -0.00059428526 -0.01623703 -0.014273951 0.0018382584
-0.011590331 -0.01662483 -0.013909975 -0.0058532725 0.0059449608 -0.020173568 -0.021712042 -0.031068671
-0.005779346 -0.017506706 -0.0041433237 -0.0015577342 -0.023645056 -0.029229265 0.0008288613 -0.0046823453
-0.0048922193 -0.008592816 -0.008138456 -0.00447244 -0.024347916 -0.017145522 -0.015431802 -0.024601301
-0.021999633 -2.0972975e-06 -0.029717267 0.00028794835 -0.024942217 -0.017608473 -0.023768522 -0.0048885643
-0.0033047784 -0.012482744 -0.022277987 -0.023308702 -0.00815907 0.0009383945 -0.017819198 -0.012392578
-0.021086643 -0.018154461 0.006572056 0.016555691 -0.009337692 0.01052513 -0.033482544 -0.022655781
-0.019030018 -0.03041555 -0.007783722 -0.0045723617 -0.022048794 -0.046439923 -0.028026344 0.0034541932
-0.02242136 -0.018504955 -0.021582931 -0.01361131 0.0050500585 -0.013979237 -0.015279147 -0.009447514
0.0008999796 -0.011755843 -0.026420316 -0.017950239 -0.005228472 -0.01660148 -0.0062191617 -0.020541817
-0.021628438 0.002954177 -0.008126172 -0.0025737435 -0.021500481 -0.012200324 -0.006539898 -0.0075926622
-0.021099031 0.0042528766 -0.0014703785 -0.013415365 -0.029514698 -0.012529093 -0.009076571 -0.020212082
-0.015491282 -0.018151512 0.005959372 0.0058274847 -0.012624226 -0.018699009 -0.03297484 -0.011308233
-0.009920606 -0.022652425 -0.007125548 -0.020722724 -0.005211043 -0.009875259 -0.019478971 -0.020711835
-0.01182263 -0.002630106 0.0012906813 -0.025880009 -0.01457432 -0.0152040515 0.0060510663 0.01516783
-0.025193121 -0.015772788 -0.022914734 -0.016048899 -0.02071575 -0.019297134 -0.02653105 0.00031214333
